# YOLOv5 🚀 by Ultralytics, GPL-3.0 license

# Parameters
nc: 80  # number of classes
depth_multiple: 1.0  # model depth multiple
width_multiple: 1.0  # layer channel multiple
anchors:
  - [10,13, 16,30, 33,23]  # P3/8
  - [30,61, 62,45, 59,119]  # P4/16
  - [116,90, 156,198, 373,326]  # P5/32

# YOLOv5 v6.0 backbone
backbone:
  # [from, number, module, args]
  [
    # rgb P1-P3
    [-1, 1, Conv, [64, 6, 2, 2]],  # 0-P1/2
    [-1, 1, Conv, [128, 3, 2]],  # 1-P2/4
    [-1, 3, C3, [128]],  # 2-P2/4
    [-1, 1, Conv, [256, 3, 2]],  # 3-P3/8
    [-1, 6, C3, [256]],  # 4-P3/8
    # ir P1-P3
    [-4, 1, Conv, [64, 6, 2, 2]],  # 5-P1/2
    [-1, 1, Conv, [128, 3, 2]],  # 6-P2/4
    [-1, 3, C3, [128]],  # 7-P2/4
    [-1, 1, Conv, [256, 3, 2]],  # 8-P3/8
    [-1, 6, C3, [256]],  # 9-P3/8
    
    # rgb P4
    [4, 1, Conv, [512, 3, 2]],  # 10-P4/16
    [-1, 9, C3, [512]],  # 11-P4/16
    # ir P4
    [9, 1, Conv, [512, 3, 2]],  # 12-P4/16
    [-1, 9, C3, [512]],  # 13-P4/16

    # rgb P5
    [11, 1, Conv, [1024, 3, 2]],  # 14-P5/32
    [-1, 3, C3, [1024]],  # 15-P5/32
    [-1, 1, SPPF, [1024, 5]],  # 16
    # ir P5
    [13, 1, Conv, [1024, 3, 2]],  # 17-P5/32
    [-1, 3, C3, [1024]],  # 18-P5/32
    [-1, 1, SPPF, [1024, 5]],  # 19

    # fusion to head
    [[4,9], 1, MCFF, [256, 8]],  # 20-P3/8
    [[11,13], 1, MCFF, [512, 16]],  # 21-P4/16
    [[16,19], 1, MCFF, [1024, 32]],  # 22-P3/32
  ]

# YOLOv5 v6.0 head
head:
  [[-1, 1, Conv, [512, 1, 1]],  # 23
   [-1, 1, nn.Upsample, [None, 2, 'nearest']],  # 24
   [[-1, 21], 1, Concat, [1]],  # 25 cat backbone P4
   [-1, 3, C3, [512, False]],  # 26

   [-1, 1, Conv, [256, 1, 1]],  # 27
   [-1, 1, nn.Upsample, [None, 2, 'nearest']],  # 28
   [[-1, 20], 1, Concat, [1]],  # 29 cat backbone P3
   [-1, 3, C3, [256, False]],  # 30 (P3/8-small)

   [-1, 1, Conv, [256, 3, 2]],  # 31
   [[-1, 27], 1, Concat, [1]],  # 32 cat head P4
   [-1, 3, C3, [512, False]],  # 33 (P4/16-medium)

   [-1, 1, Conv, [512, 3, 2]],  # 34
   [[-1, 23], 1, Concat, [1]],  # 35 cat head P5
   [-1, 3, C3, [1024, False]],  # 36 (P5/32-large)

   [[30, 33, 36], 1, Detect, [nc, anchors]],  # 37 Detect(P3, P4, P5)
  ]
