# YOLOv5 🚀 by Ultralytics, GPL-3.0 license

# Parameters
nc: 3  # number of classes
depth_multiple: 1.0  # model depth multiple
width_multiple: 1.0  # layer channel multiple
anchors:
  - [10,13, 16,30, 33,23]  # P3/8
  - [30,61, 62,45, 59,119]  # P4/16
  - [116,90, 156,198, 373,326]  # P5/32

# YOLOv5 v6.0 backbone
backbone:
  # [from, number, module, args]
  [
    # rgb stream P1-P2
    [-1, 1, Conv, [64, 6, 2, 2]],  # 0-P1/2
    [-1, 1, Conv, [128, 3, 2]],  # 1-P2/4
    [-1, 3, C3, [128]],  # 2-P2/4
    # ir stream P1-P2
    [-4, 1, Conv, [64, 6, 2, 2]],  # 3-P1/2
    [-1, 1, Conv, [128, 3, 2]],  # 4-P2/4
    [-1, 3, C3, [128]],  # 5-P2/4
    # P2 fusion
    [[5,2], 1, Inter_MA, [128, 4]], # 6-P2/4  rgb
    [[2,5], 1, Inter_MA, [128, 4]], # 7-P2/4  ir

    # rgb P3
    [6, 1, Conv, [256, 3, 2]],  # 8-P3/8
    [-1, 6, C3, [256]],  # 9-P3/8
    # ir P3
    [7, 1, Conv, [256, 3, 2]],  # 10-P3/8
    [-1, 6, C3, [256]],  # 11-P3/8
    # P3 fusion
    [[11,9], 1, Inter_MA, [256, 8]], # 12-P3/8  rgb
    [[9,11], 1, Inter_MA, [256, 8]], # 13-P3/8  ir


    # rgb stream P4
    [12, 1, Conv, [512, 3, 2]],  # 14-P4/16
    [-1, 9, C3, [512]],  # 15-P4/16
    # ir stream P4
    [13, 1, Conv, [512, 3, 2]],  # 16-P4/16
    [-1, 9, C3, [512]],  # 17-P4/16
    # P4 fusion
    [[17,15], 1, Inter_MA, [512, 16]], # 18-P4/16  rgb
    [[15,17], 1, Inter_MA, [512, 16]], # 19-P4/16  ir


    # rgb stream P5
    [18, 1, Conv, [1024, 3, 2]],  # 20-P5/32
    [-1, 3, C3, [1024]],  # 21-P5/32
    [-1, 1, SPPF, [1024, 5]],  # 22-P5/32
    # ir stream P5
    [19, 1, Conv, [1024, 3, 2]],  # 23-P5/32
    [-1, 3, C3, [1024]],  # 24-P5/32
    [-1, 1, SPPF, [1024, 5]],  # 25-P5/32
    # P5 fusion
    [[25,22], 1, Inter_MA, [1024, 32]], # 26-P5/32  rgb
    [[22,25], 1, Inter_MA, [1024, 32]], # 27-P5/32  ir


    # fusion to head
    [[12,13], 1, MCFF, [256, 8]],  # 28-P3/8
    [[18,19], 1, MCFF, [512, 16]],  # 29-P4/16
    [[26,27], 1, MCFF, [1024, 32]],  # 30-P5/32
  ]

# YOLOv5 v6.0 head
head:
  [[-1, 1, Conv, [512, 1, 1]],  # 31
   [-1, 1, nn.Upsample, [None, 2, 'nearest']],  # 32
   [[-1, 29], 1, Concat, [1]],  # 33 cat backbone P4
   [-1, 3, C3, [512, False]],  # 34

   [-1, 1, Conv, [256, 1, 1]],  # 35
   [-1, 1, nn.Upsample, [None, 2, 'nearest']],  # 36
   [[-1, 28], 1, Concat, [1]],  # 37 cat backbone P3
   [-1, 3, C3, [256, False]],  # 38 (P3/8-small)

   [-1, 1, Conv, [256, 3, 2]],  # 39
   [[-1, 35], 1, Concat, [1]],  # 40 cat head P4
   [-1, 3, C3, [512, False]],  # 41 (P4/16-medium)

   [-1, 1, Conv, [512, 3, 2]],  # 42
   [[-1, 31], 1, Concat, [1]],  # 43 cat head P5
   [-1, 3, C3, [1024, False]],  # 44 (P5/32-large)

   [[38, 41, 44], 1, Detect, [nc, anchors]],  # 45 Detect(P3, P4, P5)
  ]
