…
.5, shear=0.0, perspective=0.0, flipud=0.0, fliplr=0.5, mosaic=1.0, mixup=0.0, copy_paste=0.0
[34m[1mClearML: [0mrun 'pip install clearml' to automatically track, visualize and remotely train YOLOv5 🚀 in ClearML
[34m[1mComet: [0mrun 'pip install comet_ml' to automatically track and visualize YOLOv5 🚀 runs in Comet
[34m[1mTensorBoard: [0mStart with 'tensorboard --logdir yolov5_multi_modalities/runs/train/fusion', view at http://localhost:6006/

                 from  n    params  module                                  arguments                     
  0                -1  1      7040  models.common.Conv                      [3, 64, 6, 2, 2]              
  1                -1  1     73984  models.common.Conv                      [64, 128, 3, 2]               
  2                -1  3    156928  models.common.C3                        [128, 128, 3]                 
  3                -4  1      7040  models.common.Conv                      [3, 64, 6, 2, 2]              
  4                -1  1     73984  models.common.Conv                      [64, 128, 3, 2]               
  5                -1  3    156928  models.common.C3                        [128, 128, 3]                 
  6            [2, 5]  1         0  models.common.Add                       [128]                         
  7            [5, 2]  1         0  models.common.Add                       [128]                         
  8                 6  1    295424  models.common.Conv                      [128, 256, 3, 2]              
  9                -1  6   1118208  models.common.C3                        [256, 256, 6]                 
 10                 7  1    295424  models.common.Conv                      [128, 256, 3, 2]              
 11                -1  6   1118208  models.common.C3                        [256, 256, 6]                 
 12           [9, 11]  1         0  models.common.Add                       [256]                         
 13           [11, 9]  1         0  models.common.Add                       [256]                         
 14                12  1   1180672  models.common.Conv                      [256, 512, 3, 2]              
 15                -1  9   6433792  models.common.C3                        [512, 512, 9]                 
 16                13  1   1180672  models.common.Conv                      [256, 512, 3, 2]              
 17                -1  9   6433792  models.common.C3                        [512, 512, 9]                 
 18          [15, 17]  1         0  models.common.Add                       [512]                         
 19          [17, 15]  1         0  models.common.Add                       [512]                         
 20                18  1   4720640  models.common.Conv                      [512, 1024, 3, 2]             
 21                -1  3   9971712  models.common.C3                        [1024, 1024, 3]               
 22                -1  1   2624512  models.common.SPPF                      [1024, 1024, 5]               
 23                19  1   4720640  models.common.Conv                      [512, 1024, 3, 2]             
 24                -1  3   9971712  models.common.C3                        [1024, 1024, 3]               
 25                -1  1   2624512  models.common.SPPF                      [1024, 1024, 5]               
 26          [22, 25]  1         0  models.common.Add                       [1024]                        
 27          [25, 22]  1         0  models.common.Add                       [1024]                        
 28          [12, 13]  1     33312  models.common.MCFF                      [256, 256, 8]                 
 29          [18, 19]  1     66592  models.common.MCFF                      [512, 512, 16]                
 30          [26, 27]  1    133152  models.common.MCFF                      [1024, 1024, 32]              
 31                -1  1    525312  models.common.Conv                      [1024, 512, 1, 1]             
 32                -1  1         0  torch.nn.modules.upsampling.Upsample    [None, 2, 'nearest']          
 33          [-1, 29]  1         0  models.common.Concat                    [1]                           
 34                -1  3   2757632  models.common.C3                        [1024, 512, 3, False]         
 35                -1  1    131584  models.common.Conv                      [512, 256, 1, 1]              
 36                -1  1         0  torch.nn.modules.upsampling.Upsample    [None, 2, 'nearest']          
 37          [-1, 28]  1         0  models.common.Concat                    [1]                           
 38                -1  3    690688  models.common.C3                        [512, 256, 3, False]          
 39                -1  1    590336  models.common.Conv                      [256, 256, 3, 2]              
 40          [-1, 35]  1         0  models.common.Concat                    [1]                           
 41                -1  3   2495488  models.common.C3                        [512, 512, 3, False]          
 42                -1  1   2360320  models.common.Conv                      [512, 512, 3, 2]              
 43          [-1, 31]  1         0  models.common.Concat                    [1]                           
 44                -1  3   9971712  models.common.C3                        [1024, 1024, 3, False]        
 45      [38, 41, 44]  1     43080  models.yolo.Detect                      [3, [[10, 13, 16, 30, 33, 23], [30, 61, 62, 45, 59, 119], [116, 90, 156, 198, 373, 326]], [256, 512, 1024]]
YOLOv5l_mcff_add_FLIR summary: 611 layers, 72965032 parameters, 72965032 gradients

Transferred 972/991 items from yolov5_multi_modalities/weights_in_coco/yolov5l.pt
[34m[1mAMP: [0mchecks failed ❌, disabling Automatic Mixed Precision. See https://github.com/ultralytics/yolov5/issues/7908
…
