# YOLOv5 🚀 by Ultralytics, GPL-3.0 license

# Parameters
nc: 3  # number of classes
depth_multiple: 1.0  # model depth multiple
width_multiple: 1.0  # layer channel multiple
anchors:
  - [10,13, 16,30, 33,23]  # P3/8
  - [30,61, 62,45, 59,119]  # P4/16
  - [116,90, 156,198, 373,326]  # P5/32

# YOLOv5 v6.0 backbone
backbone:
  # [from, number, module, args]
  [
    # rgb stream P1-P3
    [-1, 1, Conv, [64, 6, 2, 2]],  # 0-P1/2
    [-1, 1, Conv, [128, 3, 2]],  # 1-P2/4
    [-1, 3, C3, [128]],  # 2-P2/4
    [-1, 1, Conv, [256, 3, 2]],  # 3-P3/8
    [-1, 6, C3, [256]],  # 4-P3/8
    # ir stream P1-P3
    [-4, 1, Conv, [64, 6, 2, 2]],  # 5-P1/2
    [-1, 1, Conv, [128, 3, 2]],  # 6-P2/4
    [-1, 3, C3, [128]],  # 7-P2/4
    [-1, 1, Conv, [256, 3, 2]],  # 8-P3/8
    [-1, 6, C3, [256]],  # 9-P3/8
    # P3 fusion
    # fusion
    [[4,9], 1, Add, [256]], # 10-P3/8  rgb
    [[9,4], 1, Add, [256]], # 11-P3/8  ir


    # rgb stream P4
    [10, 1, Conv, [512, 3, 2]],  # 12-P4/16
    [-1, 9, C3, [512]],  # 13-P4/16
    # ir stream P4
    [11, 1, Conv, [512, 3, 2]],  # 14-P4/16
    [-1, 9, C3, [512]],  # 15-P4/16
    # P4 fusion
    # fusion
    [[13,15], 1, Add, [512]], # 16-P4/16  rgb
    [[15,13], 1, Add, [512]], # 17-P4/16  ir


    # rgb stream P5
    [16, 1, Conv, [1024, 3, 2]],  # 18-P5/32
    [-1, 3, C3, [1024]],  # 19-P5/32
    [-1, 1, SPPF, [1024, 5]],  # 20-P5/32
    # ir stream P5
    [17, 1, Conv, [1024, 3, 2]],  # 21-P5/32
    [-1, 3, C3, [1024]],  # 22-P5/32
    [-1, 1, SPPF, [1024, 5]],  # 23-P5/32
    # P5 fusion
    # fusion
    [[20,23], 1, Add, [1024]], # 24-P5/32  rgb
    [[23,20], 1, Add, [1024]], # 25-P5/32  ir


    # fusion to head
    [[10,11], 1, Add, [256]], # 26-P3/8

    [[16,17], 1, Add, [512]], # 27-P4/16

    [[24,25], 1, Add, [1024]], # 28-P5/32
  ]

# YOLOv5 v6.0 head
head:
  [[-1, 1, Conv, [512, 1, 1]],  # 29
   [-1, 1, nn.Upsample, [None, 2, 'nearest']],  # 30
   [[-1, 27], 1, Concat, [1]],  # 31 cat backbone P4
   [-1, 3, C3, [512, False]],  # 32

   [-1, 1, Conv, [256, 1, 1]],  # 33
   [-1, 1, nn.Upsample, [None, 2, 'nearest']],  # 34
   [[-1, 26], 1, Concat, [1]],  # 35 cat backbone P3
   [-1, 3, C3, [256, False]],  # 36 (P3/8-small)

   [-1, 1, Conv, [256, 3, 2]],  # 37
   [[-1, 33], 1, Concat, [1]],  # 38 cat head P4
   [-1, 3, C3, [512, False]],  # 39 (P4/16-medium)

   [-1, 1, Conv, [512, 3, 2]],  # 40
   [[-1, 29], 1, Concat, [1]],  # 41 cat head P5
   [-1, 3, C3, [1024, False]],  # 42 (P5/32-large)

   [[36, 39, 42], 1, Detect, [nc, anchors]],  # 43 Detect(P3, P4, P5)
  ]
